src/gestures/models/ik_fnn.pth (torch, 10376 bytes, 4 tensors)

net.0.weight f4 [100, 12]
0.40093395 0.726919 0.3825174 0.20307097 0.61285657 0.6605381 0.38421896 0.47039276
0.26223594 0.58314013 0.65493566 0.29234073 0.5404493 0.50088257 0.29221657 0.54208666
0.6367762 0.33702666 0.16577959 0.22526224 0.37227654 0.46798837 0.40233004 0.4730621
0.3473027 0.5532831 0.3374184 0.5225909 0.48395893 0.5089649 0.49956566 0.3463304
0.39178693 0.6187425 0.676757 0.26175755 -0.4667803 -0.16993096 -0.6958238 -0.31127545
-0.44831184 -0.58163524 -0.23354697 -0.3229932 -0.70863783 -0.7268115 -0.6795607 -0.23024075
-0.6362048 -0.37747526 -0.4977792 -0.6351885 -0.19324224 -0.51762193 -0.49345893 -0.4480061
-0.66017693 -0.40722165 -0.24244578 -0.40111804 0.20890987 0.5501175 0.7245073 0.18047385
0.17598155 0.5447149 0.4882579 0.43543038 0.39858764 0.5158319 0.70866925 0.41361007
-0.36956644 -0.26537758 -0.6717932 -0.48433504 -0.44596553 -0.34049296 -0.35979378 -0.5038589
-0.4518286 -0.6871701 -0.5347603 -0.50151414 0.2156202 0.7172409 0.35337606 0.70383024
0.6134604 0.49575 0.5845751 0.40317705 0.44599336 0.52247554 0.56033707 0.62051344
0.4062716 0.298582 0.18198468 0.69519806 0.5740335 0.61553997 0.65736395 0.38174134
0.71912885 0.30822816 0.42446125 0.28332305 0.29881784 0.4687488 0.6648114 0.6582967
0.4960254 0.17436798 0.53972745 0.6705163 0.72009915 0.39713 0.4153237 0.68503493
0.29703858 0.3234371 0.5887248 0.60617673 0.45103648 0.5041136 0.48949084 0.3052226
0.17614728 0.33309406 0.3560256 0.55549824 -0.24992892 -0.23704796 -0.68587965 -0.70985115
-0.43927667 -0.17348045 -0.5423313 -0.23628627 -0.48912197 -0.6595658 -0.5360488 -0.4678366
-0.5215877 -0.47261378 -0.27111846 -0.7322856 -0.57023054 -0.36559755 -0.50355273 -0.5915865
-0.28300014 -0.4561043 -0.5185886 -0.22544573 0.18986829 0.6682646 0.6972193 0.6431849
0.5899343 0.65583956 0.5707091 0.5127421 0.3178182 0.68701637 0.687632 0.20780231
0.3752125 0.4005784 0.4747438 0.13605967 0.6772984 0.65237015 0.25712392 0.4054474
0.69777435 0.6183072 0.53223777 0.54166377 -0.5953076 -0.17031671 -0.22160389 -0.40466106
-0.5597774 -0.37967795 -0.63969827 -0.5664291 -0.69410044 -0.38549393 -0.55537134 -0.17392643
0.27460515 0.4041044 0.50330937 0.48721835 0.38761082 0.47910714 0.72959 0.16870101
0.21279332 0.28526875 0.6222228 0.48083463 -0.17984086 -0.63372004 -0.63987523 -0.6589039
-0.27265027 -0.41518673 -0.4286382 -0.51361006 -0.37942624 -0.503181 -0.4578541 -0.4377279
-0.64589703 -0.69503635 -0.4229633 -0.6347916 -0.41934597 -0.41720074 -0.27512923 -0.24724697
-0.519018 -0.4841474 -0.7596667 -0.31896615 0.50100946 0.44648078 0.6103764 0.71560234
0.5390876 0.3935891 0.40253747 0.70180076 0.5154716 0.67408806 0.66887045 0.47096512
-0.5257082 -0.19490597 -0.66168755 -0.705927 -0.5538809 -0.67200094 -0.23078655 -0.18452841
-0.5008646 -0.22411299 -0.5336537 -0.6974486 -0.18525152 -0.5250074 -0.37707415 -0.23489147
00000000: 3747 cd3e 5d17 3a3f 52d9 c33e d6f1 4f3e
00000010: 2be4 1c3f 0619 293f 59b8 c43e 52d7 f03e
00000020: ca43 863e ac48 153f dda9 273f afad 953e
00000030: e35a 0a3f d739 003f 699d 953e 31c6 0a3f
00000040: c403 233f c28e ac3e 20c2 293e 25ab 663e
00000050: 089b be3e 2c9c ef3e 34fe cd3e 3235 f23e
00000060: a9d1 b13e f6a3 0d3f 1bc2 ac3e 84c8 053f
00000070: 77c9 f73e 864b 023f 12c7 ff3e 3852 b13e
00000080: 4c98 c83e e965 1e3f f23f 2d3f 1605 863e
00000090: d4fd eebe 6202 2ebe 8221 32bf 7f5f 9fbe
000000a0: 2189 e5be 0ce6 14bf f026 6fbe 5d5f a5be
000000b0: 4a69 35bf 5210 3abf b1f7 2dbf 3bc4 6bbe
000000c0: 51de 22bf 7044 c1be eadc febe b79b 22bf
000000d0: 4be1 45be df82 04bf a6a6 fcbe 0e61 e5be
000000e0: 5b01 29bf 5b7f d0be b543 78be 585f cdbe
000000f0: 78ec 553e 80d4 0c3f 4f79 393f 23ce 383e
00000100: 8234 343e 7072 0b3f f1fc f93e bbf0 de3e
00000110: ae13 cc3e 8f0d 043f 596b 353f b3c4 d33e
00000120: d037 bdbe 92df 87be a4fa 2bbf c3fa f7be
00000130: 9855 e4be 1855 aebe e436 b8be e6fc 00bf
00000140: 1456 e7be 61ea 2fbf 0de6 08bf 3b63 00bf
00000150: 8bcb 5c3e 1a9d 373f b5ed b43e 382e 343f
00000160: be0b 1d3f f2d2 fd3e b7a6 153f 396d ce3e
00000170: 3e59 e43e f5c0 053f 4072 0f3f f8d9 1e3f
00000180: d502 d03e bddf 983e 315a 3a3e 80f8 313f
00000190: dcf3 123f 0794 1d3f 0149 283f 9a73 c33e
000001a0: d418 383f 15d0 9d3e fc52 d93e b80f 913e
000001b0: a7fe 983e d8ff ef3e 1431 2a3f 2286 283f
000001c0: 0bf7 fd3e 858d 323e 942b 0a3f f5a6 2b3f
000001d0: 6b58 383f a054 cb3e 4fa5 d43e 735e 2f3f
000001e0: 7115 983e 8c99 a53e abb6 163f 662e 1b3f
000001f0: 41ee e63e 970d 013f 8b9e fa3e 2346 9c3e
00000200: f45f 343e 4e8b aa3e fd48 b63e 2235 0e3f
00000210: 5eed 7fbe b3bc 72be cf95 2fbf ceb8 35bf
00000220: dfe8 e0be dca4 31be 39d6 0abf 07f5 71be
00000230: 326e fabe 4ed9 28bf 7f3a 09bf 4788 efbe
00000240: c686 05bf 6ffa f1be 0ad0 8abe 1277 3bbf
00000250: a1fa 11bf 9a2f bbbe d5e8 00bf 3672 17bf
00000260: 65e5 90be 8186 e9be 39c2 04bf 3fdb 66be
00000270: d56c 423e 6413 2b3f f77c 323f c4a7 243f
00000280: ef05 173f 1ae5 273f fe19 123f 1143 033f
00000290: 11b9 a23e 4ee0 2f3f a708 303f 21ca 543e
000002a0: da1b c03e 9d18 cd3e 9f11 f33e 3a53 0b3e
000002b0: 6e63 2d3f bb01 273f bfa5 833e cd96 cf3e
000002c0: 57a1 323f 6149 1e3f bc40 083f 7aaa 0a3f
000002d0: 1466 18bf 8167 2ebe 21ec 62be bc2f cfbe
000002e0: 924d 0fbf 2665 c2be 44c3 23bf 7f01 11bf
000002f0: 91b0 31bf 765f c5be d12c 0ebf c519 32be
00000300: 0c99 8c3e c6e6 ce3e e2d8 003f af74 f93e
00000310: ed74 c63e 884d f53e 69c6 3a3f f5bf 2c3e
00000320: 7ee6 593e bf0e 923e fe49 1f3f f52f f63e
00000330: 3428 38be 7a3b 22bf ddce 23bf edad 28bf
00000340: d198 8bbe 5b93 d4be 7776 dbbe f37b 03bf
00000350: 2844 c2be 78d0 00bf da6b eabe df1d e0be
00000360: 8259 25bf e7ed 31bf a58e d8be b481 22bf
00000370: 84b4 d6be 569b d5be bddd 8cbe 4f2e 7dbe
00000380: 5dde 04bf 2be2 f7be 8479 42bf 884f a3be
00000390: 2842 003f 2199 e43e a141 1c3f b731 373f
000003a0: a501 0a3f 8384 c93e 6419 ce3e 37a9 333f
000003b0: f2f5 033f 0991 2c3f 183b 2b3f 5722 f13e
000003c0: d094 06bf 6e95 47be 5b64 29bf a2b7 34bf
000003d0: 23cb 0dbf 4108 2cbf 4f53 6cbe 04f5 3cbe
000003e0: aa38 00bf e07d 65be 879d 08bf fe8b 32bf
000003f0: 93b2 3dbe e366 06bf dd0f c1be 6487 70be

net.0.bias f4 [100]
0.59704936 0.64894277 0.63693595 -0.41180736 -0.33303142 0.68716925 -0.29130018 0.24405204
0.40387014 0.47524127 0.6619636 -0.70073915 -0.61912453 0.21720427 0.20911442 -0.56048524
0.7244711 -0.6982219 -0.41448945 0.14677317 -0.5807047 -0.5670972 -0.66417545 0.6980017
-0.3612071 0.5913302 0.26029742 0.72057676 -0.5514468 -0.4893504 0.22993334 -0.49007034
0.50424445 -0.6150958 -0.69310814 0.38853216 0.24951513 0.6193848 0.1889543 0.48916566
-0.29852468 0.5321659 -0.5014207 -0.545393 -0.36388695 0.6532369 0.27524447 0.22398928
-0.5504329 -0.2971475 0.6877036 0.4323201 0.57053363 0.56432265 -0.5187319 -0.6185975
-0.6482999 -0.5897593 -0.5398879 0.649393 0.5798728 -0.4508253 -0.7001348 0.6297395
0.5742742 0.16568571 -0.6010388 -0.47693545 -0.51393044 -0.6705617 -0.70083094 0.5279195
-0.6871139 0.41277137 0.22456013 0.4451816 -0.5427044 -0.59921175 0.5850908 -0.62747735
0.23222654 0.6872693 0.42479572 -0.38989055 -0.5513489 0.68872374 -0.69474316 0.6610202
-0.43367118 -0.6285661 0.50994307 0.48043028 -0.40466627 -0.59887743 0.2185973 0.41567588
-0.19046144 -0.5854486 -0.5979207 -0.4212612
00000000: 3ad8 183f 1d21 263f 3c0e 233f 6ad8 d2be
00000010: 1883 aabe 53ea 2f3f 4c25 95be c7e8 793e
00000020: 11c8 ce3e d352 f33e 7276 293f a463 33bf
00000030: f27e 1ebf cc6a 5e3e 1722 563e f67b 0fbf
00000040: f076 393f acbe 32bf f637 d4be b54b 163e
00000050: 10a9 14bf 482d 11bf 6707 2abf 3db0 323f
00000060: 23f0 b8be 6a61 173f b445 853e b877 383f
00000070: 9e2b 0dbf 238c fabe a573 6b3e 80ea fabe
00000080: 2a16 013f eb76 1dbf 896f 31bf b0ed c63e
00000090: e580 7f3e 0190 1e3f 3c7d 413e ec73 fa3e
000000a0: 3ad8 98be 063c 083f 1b5d 00bf e09e 0bbf
000000b0: 644f babe 893a 273f d8ec 8c3e 725d 653e
000000c0: 2ce9 0cbf b823 98be 580d 303f 0f59 dd3e
000000d0: 7e0e 123f 7377 103f 9dcb 04bf 685c 1ebf
000000e0: fbf6 25bf 77fa 16bf 1836 0abf 9f3e 263f
000000f0: 8b72 143f 93d2 e6be 093c 33bf 9c36 213f
00000100: a203 133f 84a9 293e aedd 19bf e230 f4be
00000110: f290 03bf eea9 2bbf a869 33bf bb25 073f
00000120: b2e6 2fbf c556 d33e 17f3 653e d8ee e33e
00000130: adee 0abf f165 19bf 83c8 153f 5ba2 20bf
00000140: cbcc 6d3e e1f0 2f3f d37e d93e bc9f c7be
00000150: 3425 0dbf 3350 303f b0da 31bf 9f38 293f
00000160: 260a debe b5e9 20bf a18b 023f f5fa f53e
00000170: 6b30 cfbe 0850 19bf f8d7 5f3e 78d3 d43e
00000180: 5308 43be f6df 15bf 5511 19bf 8caf d7be

net.2.weight f4 [8, 100]
1.2662684 1.3346335 1.318317 -1.2980155 -1.4014989 1.3293581 -1.3602084 1.3865494
1.416194 1.2002035 1.3149278 -1.1715286 -1.410787 1.2475405 1.3574245 -1.4237847
1.31283 -1.2499217 -1.4246746 1.30829 -1.2272912 -1.336525 -1.199959 1.2379432
-1.2353841 1.3330534 1.3762034 1.2247052 -1.2725099 -1.3554447 1.2641352 -1.2060585
1.2529306 -1.159855 -1.3110597 1.3509194 1.3289918 1.378336 1.2882508 1.3316174
-1.4136462 1.1854072 -1.4141812 -1.2778624 -1.4160049 1.2575101 1.3350437 1.3722839
-1.3814664 -1.4090698 1.2819229 1.151686 1.3012228 1.352216 -1.2978352 -1.2997054
-1.2630215 -1.3965977 -1.2345521 1.2213317 1.2687155 -1.2898103 -1.2655649 1.2923292
1.2866526 1.3380429 -1.3817508 -1.2267768 -1.425021 -1.2414432 -1.233486 1.2919298
-1.2265642 1.2000906 1.411294 1.3573775 -1.4010655 -1.2902162 1.3846216 -1.3647088
1.4187357 1.0805155 1.2803477 -1.170454 -1.347794 1.2735108 -1.3175896 1.2210215
-1.2690301 -1.1675513 1.2438663 1.2949328 -1.312924 -1.2600738 1.3225809 1.2584448
-1.373345 -1.3960439 -1.2752877 -1.2929912 0.39488378 0.31541944 0.4499123 -0.44061252
-0.5126343 0.37876216 -0.30322704 0.38544908 0.49046987 0.3082503 0.3596643 -0.44280416
-0.48699233 0.4508851 0.43951073 -0.4113012 0.40843368 -0.32703847 -0.44064787 0.37029615
-0.33097726 -0.46457377 -0.3139777 0.46242127 -0.37215507 0.44992027 0.45886064 0.30561188
-0.4083265 -0.44308355 0.5333666 -0.3719134 0.25927505 -0.40464598 -0.44545394 0.512318
0.5023846 0.41617897 0.51945263 0.3757302 -0.38475162 0.4678762 -0.5110751 -0.38424915
-0.44253105 0.27656007 0.3654305 0.42551747 -0.36603773 -0.49499452 0.37942308 0.39888442
0.29479992 0.3547505 -0.36646068 -0.39924127 -0.281307 -0.43831316 -0.3996735 0.23033057
0.27797186 -0.55252355 -0.29008225 0.33684698 0.33539763 0.3411145 -0.4856971 -0.30747536
-0.41271648 -0.38477793 -0.42886144 0.4680072 -0.26817232 0.27245307 0.51588494 0.42589602
-0.5110705 -0.5144512 0.48907495 -0.46271032 0.43043646 0.3684151 0.39320204 -0.3470444
-0.46857563 0.4200733 -0.3112234 0.28746596 -0.42205232 -0.36828342 0.35064653 0.38979882
-0.43929645 -0.32550836 0.44720617 0.2936402 -0.4710034 -0.40125418 -0.33194095 -0.27766398
0.5718136 0.6749475 0.7250529 -0.6980059 -0.7562258 0.58552116 -0.71653396 0.76958996
0.6379427 0.6031668 0.7228948 -0.61721337 -0.6789692 0.64532053 0.66085994 -0.64659816
0.7151274 -0.64075345 -0.5871843 0.7275083 -0.45809853 -0.77294403 -0.6654037 0.6892343
-0.64470714 0.6506626 0.7248985 0.641585 -0.61568713 -0.79670864 0.64993185 -0.7026772
0.6128779 -0.5721478 -0.56952816 0.66471535 0.7682048 0.7164538 0.6349019 0.5416329
-0.7038412 0.6106677 -0.744596 -0.7051408 -0.6673116 0.63606006 0.75751615 0.670232
-0.6355893 -0.7112393 0.6286475 0.5736858 0.5953084 0.6767703 -0.69194555 -0.69653183
00000000: 1515 a23f 45d5 aa3f 9dbe a83f 5f25 a6bf
00000010: 5164 b3bf 6828 aa3f 4f1b aebf 737a b13f
00000020: d845 b53f 45a0 993f 8e4f a83f a6f4 95bf
00000030: ab94 b4bf 68af 9f3f 16c0 ad3f 943e b6bf
00000040: d00a a83f 6ffd 9fbf bd5b b6bf 0c76 a73f
00000050: e117 9dbf 4013 abbf 4298 99bf ec74 9e3f
00000060: 1121 9ebf 7ea1 aa3f 6f27 b03f 24c3 9c3f
00000070: 9be1 a2bf 367f adbf 2fcf a13f 2060 9abf
00000080: 0860 a03f 2176 94bf ced0 a7bf edea ac3f
00000090: 671c aa3f 506d b03f 67e5 a43f 7072 aa3f
000000a0: 5cf2 b4bf 6cbb 973f e403 b5bf ff90 a3bf
000000b0: a63f b5bf 17f6 a03f b6e2 aa3f 00a7 af3f
000000c0: e4d3 b0bf 665c b4bf 0d16 a43f 726a 933f
000000d0: 788e a63f 6a15 ad3f 771f a6bf bf5c a6bf
000000e0: b0aa a1bf b7c3 b2bf ce05 9ebf 9954 9c3f
000000f0: 4565 a23f 8118 a5bf 08fe a1bf 0b6b a53f
00000100: 08b1 a43f fd44 ab3f 36dd b0bf 0607 9dbf
00000110: 1767 b6bf 9ce7 9ebf dfe2 9dbf f55d a53f
00000120: 0e00 9dbf 929c 993f 48a5 b43f 8cbe ad3f
00000130: 1d56 b3bf ce25 a5bf 483b b13f c7ae aebf
00000140: 2299 b53f 554e 8a3f 6fe2 a33f 70d1 95bf
00000150: 8484 acbf 6702 a33f c7a6 a8bf 6f4a 9c3f
00000160: 946f a2bf 5272 95bf 0337 9f3f 5cc0 a53f
00000170: e50d a8bf 194a a1bf 554a a93f b814 a13f
00000180: c5c9 afbf 91b1 b2bf a13c a3bf bc80 a5bf
00000190: 352e ca3e a87e a13e e85a e63e f797 e1be
000001a0: 003c 03bf 1ded c13e 9340 9bbe 9559 c53e
000001b0: de1e fb3e fcd2 9d3e eb25 b83e 3ab7 e2be
000001c0: 0f57 f9be 69da e63e 8d07 e13e 1296 d2be
000001d0: 381e d13e 9671 a7be 999c e1be 7597 bd3e
000001e0: da75 a9be 9ddc edbe afc1 a0be 7bc2 ec3e
000001f0: 1c8b bebe f35b e63e c8ef ea3e 2979 9c3e
00000200: 2c10 d1be d9db e2be b78a 083f 6f6b bebe
00000210: b3bf 843e c22d cfbe 8a12 e4be 4627 033f
00000220: 479c 003f 6915 d53e d9fa 043f b55f c03e
00000230: 2afe c4be 788d ef3e d1d5 02bf 4ebc c4be
00000240: 6e93 e2be 4899 8d3e b519 bb3e 6ddd d93e
00000250: 4c69 bbbe ec6f fdbe be43 c23e 943a cc3e
00000260: 04f0 963e dca1 b53e bca0 bbbe 5a69 ccbe
00000270: 7907 90be 956a e0be 01a2 ccbe c7db 6b3e
00000280: 5452 8e3e 2f72 0dbf a985 94be 3577 ac3e
00000290: 3db9 ab3e 8fa6 ae3e 4aad f8be 696d 9dbe
000002a0: 934f d3be 9d01 c5be ba93 dbbe a49e ef3e
000002b0: e24d 89be f87e 8b3e 0911 043f 0b0f da3e
000002c0: 84d5 02bf 13b3 03bf 0868 fa3e 5ee8 ecbe
000002d0: 2b62 dc3e e7a0 bc3e c751 c93e ceaf b1be
000002e0: 25e9 efbe d913 d73e ac58 9fbe bd2e 933e
000002f0: 3e17 d8be a58f bcbe f187 b33e b693 c73e
00000300: 77eb e0be 08a9 a6be 35f8 e43e 0258 963e
00000310: 5c27 f1be 3071 cdbe 2af4 a9be f929 8ebe
00000320: 6062 123f 5cc9 2c3f 119d 393f 84b0 32bf
00000330: 0498 41bf b7e4 153f c56e 37bf d903 453f
00000340: 3650 233f 2469 1a3f a20f 393f b201 1ebf
00000350: edd0 2dbf ba33 253f 1e2e 293f 7587 25bf
00000360: 9712 373f 6b08 24bf b651 16bf fc3d 3a3f
00000370: e48b eabe a9df 45bf e657 2abf a971 303f
00000380: 870b 25bf d391 263f f392 393f ea3e 243f
00000390: ac9d 1dbf 19f5 4bbf ef61 263f a7e2 33bf
000003a0: 91e5 1c3f 4778 12bf 99cc 11bf c92a 2a3f
000003b0: 12a9 443f 8469 373f ee88 223f 74a8 0a3f
000003c0: f02e 34bf b854 1c3f d89d 3ebf 1c84 34bf
000003d0: efd4 2abf d5d4 223f 94ec 413f 5394 2b3f
000003e0: fbb5 22bf c713 36bf 0bef 203f 13dd 123f
000003f0: 2266 183f d240 2d3f 5823 31bf e94f 32bf

net.2.bias f4 [8]
1.1188891 0.1915071 0.5070214 0.14099509 0.4441311 0.7984858 0.451473 0.16625017
00000000: c237 8f3f 701a 443e 28cc 013f 0461 103e
00000010: 2765 e33e 9169 4c3f 7827 e73e 7c3d 2a3e
